"LeNet"
layer {
  name: "mnist"
  type: "Data"
  top: "data"
  top: "label"
  include {
    phase: TRAIN
  }
  phase: TRAIN
  transform_param {
    scale: 0.00390625
  }
  data_param {
    source: "examples/mnist/mnist_train_lmdb"
    batch_size: 64
    backend: LMDB
  }
}
layer {
  name: "conv1"
  type: "Convolution"
  bottom: "data"
  top: "conv1"
  param {
    lr_mult: 1
  }
  param {
    lr_mult: 2
  }
  blobs {
…
    shape {
      dim: 5
      dim: 1
      dim: 5
      dim: 5
    }
  }
  blobs {
    data: -0.61531353
    data: -0.71787918
    data: 0.55722272
    data: -0.16002136
    data: -0.32026431
    shape {
      dim: 5
    }
  }
  phase: TRAIN
  convolution_param {
    num_output: 5
    kernel_size: 5
    stride: 1
    weight_filler {
      type: "xavier"
    }
    bias_filler {
      type: "constant"
    }
  }
}
layer {
  name: "pool1"
  type: "Pooling"
  bottom: "conv1"
  top: "pool1"
  phase: TRAIN
  pooling_param {
    pool: MAX
    kernel_size: 2
    stride: 2
  }
}
layer {
  name: "conv2"
  type: "Convolution"
  bottom: "pool1"
  top: "conv2"
  param {
    lr_mult: 1
  }
  param {
    lr_mult: 2
  }
  blobs {
…
    shape {
      dim: 5
      dim: 5
      dim: 5
      dim: 5
    }
  }
  blobs {
    data: -0.47114483
    data: -0.3935321
    data: -0.20997332
    data: -0.049400333
    data: -0.20793267
    shape {
      dim: 5
    }
  }
  phase: TRAIN
  convolution_param {
    num_output: 5
    kernel_size: 5
    stride: 1
    weight_filler {
      type: "xavier"
    }
    bias_filler {
      type: "constant"
    }
  }
}
layer {
  name: "pool2"
  type: "Pooling"
  bottom: "conv2"
  top: "pool2"
  phase: TRAIN
  pooling_param {
    pool: MAX
    kernel_size: 2
    stride: 2
  }
}
layer {
  name: "ip1"
  type: "InnerProduct"
  bottom: "pool2"
  top: "ip1"
  param {
    lr_mult: 1
  }
  param {
    lr_mult: 2
  }
  blobs {
…
    shape {
      dim: 40
      dim: 80
    }
  }
  blobs {
…
    shape {
      dim: 40
    }
  }
  phase: TRAIN
  inner_product_param {
    num_output: 40
    weight_filler {
      type: "xavier"
    }
    bias_filler {
      type: "constant"
    }
  }
}
layer {
  name: "relu1"
  type: "TanH"
  bottom: "ip1"
  top: "ip1"
  phase: TRAIN
}
layer {
  name: "ip2"
  type: "InnerProduct"
  bottom: "ip1"
  top: "ip2"
  param {
    lr_mult: 1
  }
  param {
    lr_mult: 2
  }
  blobs {
…
    shape {
      dim: 10
      dim: 40
    }
  }
  blobs {

    shape {
      dim: 10
    }
  }
  phase: TRAIN
  inner_product_param {
    num_output: 10
    weight_filler {
      type: "xavier"
    }
    bias_filler {
      type: "constant"
    }
  }
}
layer {
  name: "loss"
  type: "SoftmaxWithLoss"
  bottom: "ip2"
  bottom: "label"
  top: "loss"
  loss_weight: 1
  phase: TRAIN
}
